# Ultralytics ðŸš€ AGPL-3.0 License - https://ultralytics.com/license

# YOLO12s-Cascade-P2 (4-Scale Optimized)
# ä¼˜åŒ–ç­–ç•¥: å¼•å…¥ P2 å±‚ (é«˜åˆ†è¾¨çŽ‡)ï¼Œæž„å»º P2-P5 å››å°ºåº¦æ£€æµ‹æž¶æž„ï¼Œæžå¤§å¢žå¼ºå¾®å°ç›®æ ‡æ£€æµ‹èƒ½åŠ›

# Parameters
nc: 80 # number of classes
scales: # model compound scaling constants
  # [depth, width, max_channels]
  n: [0.50, 0.25, 1024] 
  s: [0.50, 0.50, 1024] 
  m: [0.50, 1.00, 512] 
  l: [1.00, 1.00, 512] 
  x: [1.00, 1.50, 512] 

# YOLO12 Backbone (ä¿æŒä¸å˜)
backbone:
  # [from, repeats, module, args]
  - [-1, 1, Conv, [64, 3, 2]] # 0-P1/2
  - [-1, 1, Conv, [128, 3, 2]] # 1-P2/4 (Backbone P2)
  - [-1, 2, C3k2, [256, False, 0.25]] # 2 (Backbone P2 Refined - å°†è¢«ç”¨äºŽèžåˆ)
  - [-1, 1, Conv, [256, 3, 2]] # 3-P3/8
  - [-1, 2, C3k2, [512, False, 0.25]] # 4 (Backbone P3 Refined)
  - [-1, 1, Conv, [512, 3, 2]] # 5-P4/16
  - [-1, 4, A2C2f, [512, True, 4]] # 6 (Backbone P4 Refined)
  - [-1, 1, Conv, [1024, 3, 2]] # 7-P5/32
  - [-1, 4, A2C2f, [1024, True, 1]] # 8 (Backbone P5 Refined)

# YOLO12 Head (æ‰©å±•ä¸ºæ”¯æŒ P2)
head:
  # === FPN Top-down flow (P5 -> P4 -> P3) ===
  - [-1, 1, nn.Upsample, [None, 2, "nearest"]]
  - [[-1, 6], 1, Concat, [1]] # cat backbone P4
  - [-1, 2, A2C2f, [512, False, -1]] # 11 (Neck P4)

  - [-1, 1, nn.Upsample, [None, 2, "nearest"]]
  - [[-1, 4], 1, Concat, [1]] # cat backbone P3
  - [-1, 2, A2C2f, [256, False, -1]] # 14 (Neck P3)

  # === æ–°å¢žåˆ†æ”¯: ç»§ç»­ä¸‹æŽ¢åˆ° P2 (P3 -> P2) ===
  - [-1, 1, nn.Upsample, [None, 2, "nearest"]] # 15 Upsample P3
  - [[-1, 2], 1, Concat, [1]] # 16 cat backbone P2 (Layer 2)
  - [-1, 2, C3k2, [128, False, 0.25]] # 17 (Neck P2 - æžé«˜åˆ†è¾¨çŽ‡ç‰¹å¾)

  # === PANet Bottom-up flow (P2 -> P3 -> P4 -> P5) ===
  - [-1, 1, Conv, [128, 3, 2]] # 18 Downsample Neck P2
  - [[-1, 14], 1, Concat, [1]] # 19 cat Neck P3
  - [-1, 2, A2C2f, [256, False, -1]] # 20 (Final P3)

  - [-1, 1, Conv, [256, 3, 2]] # 21 Downsample P3
  - [[-1, 11], 1, Concat, [1]] # 22 cat Neck P4
  - [-1, 2, A2C2f, [512, False, -1]] # 23 (Final P4)

  - [-1, 1, Conv, [512, 3, 2]] # 24 Downsample P4
  - [[-1, 8], 1, Concat, [1]] # 25 cat Backbone P5
  - [-1, 2, C3k2, [1024, True]] # 26 (Final P5)

  # === æ ¸å¿ƒä¿®æ”¹éƒ¨åˆ†ï¼šçº§è” + 4å°ºåº¦èžåˆä¼˜åŒ– ===

  # [Stage 1: Coarse Detect]
  # ä½œç”¨ï¼šç”Ÿæˆæ³¨æ„åŠ›å‚æ•° (Gaze Params)
  # è¾“å…¥ï¼šNeck çš„å››å±‚ç‰¹å¾ [P2, P3, P4, P5] -> [17, 20, 23, 26]
  # æ³¨æ„ï¼šä»£ç ä¼šè‡ªåŠ¨å–åˆ—è¡¨ç¬¬ä¸€ä¸ªå…ƒç´ (P2)ç”Ÿæˆçƒ­åŠ›å›¾ï¼Œç²¾åº¦å°†å¤§å¹…æå‡
  - [[17, 20, 23, 26], 1, CoarseDetect, [nc]] # 27

  # [Innovation 1: STN (DifferentiableGazeShift)]
  # ä½œç”¨ï¼šåŸºäºŽ Stage 1 çš„å‚æ•°å¯¹ç‰¹å¾è¿›è¡Œå˜æ¢
  # è¾“å…¥ï¼š[P2, P3, P4, P5] -> è¾“å‡º [P2_stn, P3_stn, P4_stn, P5_stn]
  - [[17, 20, 23, 26], 1, DifferentiableGazeShift, []] # 28

  # [Innovation 2: Context Fusion (GL_ContextBlock)]
  # ä½œç”¨ï¼šèžåˆ STN çš„å±€éƒ¨ç‰¹å¾(è¿™é‡Œå–åˆ†è¾¨çŽ‡æœ€é«˜çš„ P2_stn) å’Œ å…¨å±€ä¸Šä¸‹æ–‡ç‰¹å¾(P5)
  # è¾“å…¥ï¼š[28, 26] (Local, Global)ã€‚æ ¹æ®ä»£ç é€»è¾‘ï¼Œè¿™ä¼šè¾“å‡ºå¢žå¼ºåŽçš„ P2 å°ºåº¦ç‰¹å¾
  - [[28, 26], 1, GL_ContextBlock, []] # 29 (Enhanced P2)

  # [Stage 2: Fine Detect (Optimized)]
  # ä¼˜åŒ–ç‚¹ï¼šæž„å»ºæ–°çš„å››å°ºåº¦è¾“å…¥ï¼Œåˆ©ç”¨å¢žå¼ºåŽçš„ P2 æ£€æµ‹å¾®å°ç›®æ ‡
  # è¾“å…¥ 1: Layer 29 (å¢žå¼ºç‰ˆ P2ï¼Œå¸¦æœ‰ STN èšç„¦å’Œå…¨å±€ä¸Šä¸‹æ–‡) -> æžå°ç›®æ ‡æ ¸å¿ƒå±‚
  # è¾“å…¥ 2: Layer 20 (åŽŸå§‹ P3) -> å°ç›®æ ‡
  # è¾“å…¥ 3: Layer 23 (åŽŸå§‹ P4) -> ä¸­ç›®æ ‡
  # è¾“å…¥ 4: Layer 26 (åŽŸå§‹ P5) -> å¤§ç›®æ ‡
  - [[29, 20, 23, 26], 1, Detect, [nc]] # 30